…
 Black, pci bus id: 0000:83:00.0, compute capability: 3.5\n2022-09-20 12:47:23.872491: I tensorflow/compiler/mlir/mlir_graph_optimization_pass.cc:185] None of the MLIR Optimization Passes are enabled (registered 2)\n2022-09-20 12:47:24.116626: I tensorflow/core/util/cuda_solvers.cc:180] Creating CudaSolver handles for stream 0x5566d7fd5170\n\n\nModel: \"sequential\"\n_________________________________________________________________\nLayer (type)                 Output Shape              Param #   \n=================================================================\nrandom_gabor_1 (RandomGabor) (None, 28, 28, 4)         1626      \n_________________________________________________________________\nmax_pooling2d (MaxPooling2D) (None, 14, 14, 4)         0         \n_________________________________________________________________\nrandom_gabor_3 (RandomGabor) (None, 14, 14, 4)         1626      \n_________________________________________________________________\nmax_pooling2d_1 (MaxPooling2 (None, 7, 7, 4)           0         \n_________________________________________________________________\nrandom_gabor_5 (RandomGabor) (None, 7, 7, 4)           1626      \n_________________________________________________________________\nmax_pooling2d_2 (MaxPooling2 (None, 3, 3, 4)           0         \n_________________________________________________________________\nglobal_average_pooling2d (Gl (None, 4)                 0         \n_________________________________________________________________\ndense (Dense)                (None, 10)                50        \n=================================================================\nTotal params: 4,928\nTrainable params: 128\nNon-trainable params: 4,800\n_________________________________________________________________\n\n\nWe can show the initial Gabor filters:\n\nmodel.layers[0].show_filters()\n\n\n\n\n\nmodel.layers[2].show_filters()\n\n\n\n\n\nmodel.layers[4].show_filters()\n\n\n\n\n\nhistory = m
…
ossentropy\",\n              metrics=[\"accuracy\"])\nmodel.summary()\n\n2022-09-08 12:06:36.641715: I tensorflow/core/common_runtime/gpu/gpu_device.cc:1510] Created device /job:localhost/replica:0/task:0/device:GPU:0 with 5435 MB memory:  -> device: 0, name: NVIDIA GeForce GTX TITAN Black, pci bus id: 0000:83:00.0, compute capability: 3.5\n\n\nModel: \"sequential\"\n_________________________________________________________________\nLayer (type)                 Output Shape              Param #   \n=================================================================\nrandom_gabor (RandomGabor)   (None, 28, 28, 4)         26        \n_________________________________________________________________\nre_lu (ReLU)                 (None, 28, 28, 4)         0         \n_________________________________________________________________\nmax_pooling2d (MaxPooling2D) (None, 14, 14, 4)         0         \n_________________________________________________________________\nrandom_gabor_1 (RandomGabor) (None, 14, 14, 4)         26        \n_________________________________________________________________\nre_lu_1 (ReLU)               (None, 14, 14, 4)         0         \n_________________________________________________________________\nmax_pooling2d_1 (MaxPooling2 (None, 7, 7, 4)           0         \n_________________________________________________________________\nrandom_gabor_2 (RandomGabor) (None, 7, 7, 4)           26        \n_________________________________________________________________\nre_lu_2 (ReLU)               (None, 7, 7, 4)           0         \n_________________________________________________________________\nmax_pooling2d_2 (MaxPooling2 (None, 3, 3, 4)           0         \n_________________________________________________________________\nglobal_average_pooling2d (Gl (None, 4)                 0         \n_________________________________________________________________\ndense (Dense)                (None, 10)                50        \n=================================================================\nTotal params: 128\nTrainable params: 128\nNon-trainable params: 0\n_________________________________________________________________\n\n\nWe can show the initial Gabor filters:\n\nmodel.layers[0].show_filters()\n\n2022-09-08 12:06:40.240924: I tensorflow/compiler/mlir/mlir_graph_optimization_pass.cc:185] None of the MLIR 
…
